…
## Command 
C:\Users\nlewy\Desktop\pytorch_lab\src\torchtmpl\main.py config.yaml train

 Config : {'data': {'root_dir': './data/', 'batch_size': 128, 'num_workers': 4, 'valid_ratio': 0.2}, 'nepochs': 20, 'logging': {'logdir': './logs'}, 'model': {'class': 'FFN'}} 

## Summary of the model architecture
==========================================================================================
Layer (type:depth-idx)                   Output Shape              Param #
==========================================================================================
Sequential                               [10, 101]                 --
├─Flatten: 1-1                           [10, 49152]               --
├─Linear: 1-2                            [10, 128]                 6,291,584
├─ReLU: 1-3                              [10, 128]                 --
├─Dropout: 1-4                           [10, 128]                 --
├─Linear: 1-5                            [10, 128]                 16,512
├─ReLU: 1-6                              [10, 128]                 --
├─Dropout: 1-7                           [10, 128]                 --
├─Linear: 1-8                            [10, 128]                 16,512
├─ReLU: 1-9                              [10, 128]                 --
├─Dropout: 1-10                          [10, 128]                 --
├─Linear: 1-11                           [10, 101]                 13,029
==========================================================================================
Total params: 6,337,637
Trainable params: 6,337,637
Non-trainable params: 0
Total mult-adds (Units.MEGABYTES): 63.38
==========================================================================================
Input size (MB): 1.97
Forward/backward pass size (MB): 0.04
Params size (MB): 25.35
Estimated Total Size (MB): 27.36
…
